…
in: ziffer_raw/3_4_20220103-014013.jpg  -  out: ziffer_resize/3_4_20220103-014013.jpg
in: ziffer_raw/2_7_20220103-011613.jpg  -  out: ziffer_resize/2_7_20220103-011613.jpg
in: ziffer_raw/2_3_20220103-012213.jpg  -  out: ziffer_resize/2_3_20220103-012213.jpg
in: ziffer_raw/1_6_20220103-013713.jpg  -  out: ziffer_resize/1_6_20220103-013713.jpg
dig-s0
a_output_actual/dig-s0
File Exists
Model: "sequential"
_________________________________________________________________
Layer (type)                 Output Shape              Param #   
=================================================================
batch_normalization (BatchNo (None, 32, 20, 3)         12        
_________________________________________________________________
conv2d (Conv2D)              (None, 32, 20, 32)        896       
_________________________________________________________________
max_pooling2d (MaxPooling2D) (None, 16, 10, 32)        0         
_________________________________________________________________
conv2d_1 (Conv2D)            (None, 16, 10, 64)        18496     
_________________________________________________________________
max_pooling2d_1 (MaxPooling2 (None, 8, 5, 64)          0         
_________________________________________________________________
conv2d_2 (Conv2D)            (None, 8, 5, 64)          36928     
_________________________________________________________________
max_pooling2d_2 (MaxPooling2 (None, 4, 2, 64)          0         
_________________________________________________________________
flatten (Flatten)            (None, 512)               0         
_________________________________________________________________
dense (Dense)                (None, 512)               262656    
_________________________________________________________________
dense_1 (Dense)              (None, 11)                5643      
=================================================================
Total params: 324,631
Trainable params: 324,625
Non-trainable params: 6
_________________________________________________________________
200
(200, 32, 20, 3)
(200, 11)
(160, 32, 20, 3)
(40, 32, 20, 3)
Epoch 1/100
 1/40 [..............................] - ETA: 25s - loss: 0.0000e+00 - accuracy: 1.0000
…
-06 - accuracy: 1.000040/40 [==============================] - 0s 11ms/step - loss: 2.5038e-06 - accuracy: 1.0000 - val_loss: 4.7382e-06 - val_accuracy: 1.0000
dig-s0
File Exists
ziffer_resize/2_7_20220103-014659.jpg 2 -1
dig-s1
a_output_actual/dig-s1
File Exists
Model: "sequential_1"
_________________________________________________________________
Layer (type)                 Output Shape              Param #   
=================================================================
batch_normalization_1 (Batch (None, 32, 20, 3)         12        
_________________________________________________________________
conv2d_3 (Conv2D)            (None, 32, 20, 32)        896       
_________________________________________________________________
max_pooling2d_3 (MaxPooling2 (None, 16, 10, 32)        0         
_________________________________________________________________
conv2d_4 (Conv2D)            (None, 16, 10, 64)        18496     
_________________________________________________________________
max_pooling2d_4 (MaxPooling2 (None, 8, 5, 64)          0         
_________________________________________________________________
conv2d_5 (Conv2D)            (None, 8, 5, 64)          36928     
_________________________________________________________________
max_pooling2d_5 (MaxPooling2 (None, 4, 2, 64)          0         
_________________________________________________________________
flatten_1 (Flatten)          (None, 512)               0         
_________________________________________________________________
dense_2 (Dense)              (None, 256)               131328    
_________________________________________________________________
dense_3 (Dense)              (None, 11)                2827      
=================================================================
Total params: 190,487
Trainable params: 190,481
Non-trainable params: 6
_________________________________________________________________
200
(200, 32, 20, 3)
(200, 11)
(160, 32, 20, 3)
(40, 32, 20, 3)
Epoch 1/100
 1/40 [..............................] - ETA: 18s - loss: 0.0000e+00 - accuracy: 1.0000
…
20220103	200	96	1.5678433555876836e-05	1.3290936294652056e-05
20220103	200	97	2.639918602653779e-05	4.94978530696244e-06
20220103	200	98	0.004126895219087601	1.0143920917471405e-05
20220103	200	99	0.011039923876523972	0.00012684360262937844
20220103	200	100	0.0004225755110383034	0.00017256828141398728
dig-s1
File Exists
dig-s2
a_output_actual/dig-s2
File Exists
Model: "sequential_2"
_________________________________________________________________
Layer (type)                 Output Shape              Param #   
=================================================================
batch_normalization_2 (Batch (None, 32, 20, 3)         12        
_________________________________________________________________
conv2d_6 (Conv2D)            (None, 32, 20, 32)        896       
_________________________________________________________________
max_pooling2d_6 (MaxPooling2 (None, 16, 10, 32)        0         
_________________________________________________________________
conv2d_7 (Conv2D)            (None, 16, 10, 32)        9248      
_________________________________________________________________
max_pooling2d_7 (MaxPooling2 (None, 8, 5, 32)          0         
_________________________________________________________________
conv2d_8 (Conv2D)            (None, 8, 5, 32)          9248      
_________________________________________________________________
max_pooling2d_8 (MaxPooling2 (None, 4, 2, 32)          0         
_________________________________________________________________
flatten_2 (Flatten)          (None, 256)               0         
_________________________________________________________________
dense_4 (Dense)              (None, 256)               65792     
_________________________________________________________________
dense_5 (Dense)              (None, 11)                2827      
=================================================================
Total params: 88,023
Trainable params: 88,017
Non-trainable params: 6
_________________________________________________________________
200
(200, 32, 20, 3)
(200, 11)
(160, 32, 20, 3)
(40, 32, 20, 3)
Epoch 1/100
 1/40 [..............................] - ETA: 18s - loss: 1.3917e-05 - accuracy: 1.0000
…
20220103	200	96	0.0009283528779633343	8.509259350830689e-05
20220103	200	97	0.00011095590889453888	7.1689959440846e-05
20220103	200	98	0.010054362937808037	0.03033330664038658
20220103	200	99	2.9452883609337732e-05	0.05055176094174385
20220103	200	100	1.350759475826635e-06	0.00044664175948128104
dig-s2
File Exists
dig-s3
a_output_actual/dig-s3
File Exists
Model: "sequential_3"
_________________________________________________________________
Layer (type)                 Output Shape              Param #   
=================================================================
batch_normalization_3 (Batch (None, 32, 20, 3)         12        
_________________________________________________________________
conv2d_9 (Conv2D)            (None, 32, 20, 32)        896       
_________________________________________________________________
max_pooling2d_9 (MaxPooling2 (None, 16, 10, 32)        0         
_________________________________________________________________
conv2d_10 (Conv2D)           (None, 16, 10, 32)        9248      
_________________________________________________________________
max_pooling2d_10 (MaxPooling (None, 8, 5, 32)          0         
_________________________________________________________________
conv2d_11 (Conv2D)           (None, 8, 5, 32)          9248      
_________________________________________________________________
max_pooling2d_11 (MaxPooling (None, 4, 2, 32)          0         
_________________________________________________________________
flatten_3 (Flatten)          (None, 256)               0         
_________________________________________________________________
dense_6 (Dense)              (None, 128)               32896     
_________________________________________________________________
dense_7 (Dense)              (None, 11)                1419      
=================================================================
Total params: 53,719
Trainable params: 53,713
Non-trainable params: 6
_________________________________________________________________
200
(200, 32, 20, 3)
(200, 11)
(160, 32, 20, 3)
(40, 32, 20, 3)
Epoch 1/100
 1/40 [..............................] - ETA: 24s - loss: 3.0367e-05 - accuracy: 1.0000
…
