…
in: ziffer_raw/NaN_ziffer5_2020-05-11_11-10-06.jpg  -  out: ziffer_resize/NaN_ziffer5_2020-05-11_11-10-06.jpg
in: ziffer_raw/NaN_ziffer5_2020-04-18_18-40-06.jpg  -  out: ziffer_resize/NaN_ziffer5_2020-04-18_18-40-06.jpg
in: ziffer_raw/2_2_dig6_20210629-140009.jpg  -  out: ziffer_resize/2_2_dig6_20210629-140009.jpg
dig-s0
a_output_actual/dig-s0
File Exists
Model: "sequential"
_________________________________________________________________
Layer (type)                 Output Shape              Param #   
=================================================================
batch_normalization (BatchNo (None, 32, 20, 3)         12        
_________________________________________________________________
conv2d (Conv2D)              (None, 32, 20, 32)        896       
_________________________________________________________________
max_pooling2d (MaxPooling2D) (None, 16, 10, 32)        0         
_________________________________________________________________
conv2d_1 (Conv2D)            (None, 16, 10, 64)        18496     
_________________________________________________________________
max_pooling2d_1 (MaxPooling2 (None, 8, 5, 64)          0         
_________________________________________________________________
conv2d_2 (Conv2D)            (None, 8, 5, 64)          36928     
_________________________________________________________________
max_pooling2d_2 (MaxPooling2 (None, 4, 2, 64)          0         
_________________________________________________________________
flatten (Flatten)            (None, 512)               0         
_________________________________________________________________
dense (Dense)                (None, 512)               262656    
_________________________________________________________________
dense_1 (Dense)              (None, 11)                5643      
=================================================================
Total params: 324,631
Trainable params: 324,625
Non-trainable params: 6
_________________________________________________________________
1132
(1132, 32, 20, 3)
(1132, 11)
(905, 32, 20, 3)
(227, 32, 20, 3)
Epoch 1/100
  1/227 [..............................] - ETA: 1:59 - loss: 0.0000e+00 - accuracy: 1.0000
…
 accuracy: 1.0000227/227 [==============================] - 2s 7ms/step - loss: 2.7283e-04 - accuracy: 1.0000 - val_loss: 0.0946 - val_accuracy: 0.9912
dig-s0
File Exists
ziffer_resize/NaN_0_ht6_20210628-182853.jpg -1 9
dig-s1
a_output_actual/dig-s1
File Exists
Model: "sequential_1"
_________________________________________________________________
Layer (type)                 Output Shape              Param #   
=================================================================
batch_normalization_1 (Batch (None, 32, 20, 3)         12        
_________________________________________________________________
conv2d_3 (Conv2D)            (None, 32, 20, 32)        896       
_________________________________________________________________
max_pooling2d_3 (MaxPooling2 (None, 16, 10, 32)        0         
_________________________________________________________________
conv2d_4 (Conv2D)            (None, 16, 10, 64)        18496     
_________________________________________________________________
max_pooling2d_4 (MaxPooling2 (None, 8, 5, 64)          0         
_________________________________________________________________
conv2d_5 (Conv2D)            (None, 8, 5, 64)          36928     
_________________________________________________________________
max_pooling2d_5 (MaxPooling2 (None, 4, 2, 64)          0         
_________________________________________________________________
flatten_1 (Flatten)          (None, 512)               0         
_________________________________________________________________
dense_2 (Dense)              (None, 256)               131328    
_________________________________________________________________
dense_3 (Dense)              (None, 11)                2827      
=================================================================
Total params: 190,487
Trainable params: 190,481
Non-trainable params: 6
_________________________________________________________________
1132
(1132, 32, 20, 3)
(1132, 11)
(905, 32, 20, 3)
(227, 32, 20, 3)
Epoch 1/100
  1/227 [..............................] - ETA: 2:02 - loss: 0.0000e+00 - accuracy: 1.0000
…
20220103	1132	97	3.2316318083758233e-06	0.00010136796481674537
20220103	1132	98	3.774583490212535e-07	0.0004929101560264826
20220103	1132	99	0.00019976029579993337	6.985805521253496e-05
20220103	1132	100	1.4685805354019976e-06	0.0026104263961315155
dig-s1
File Exists
ziffer_resize/NaN_0_ht6_20210628-182853.jpg -1 9
dig-s2
a_output_actual/dig-s2
File Exists
Model: "sequential_2"
_________________________________________________________________
Layer (type)                 Output Shape              Param #   
=================================================================
batch_normalization_2 (Batch (None, 32, 20, 3)         12        
_________________________________________________________________
conv2d_6 (Conv2D)            (None, 32, 20, 32)        896       
_________________________________________________________________
max_pooling2d_6 (MaxPooling2 (None, 16, 10, 32)        0         
_________________________________________________________________
conv2d_7 (Conv2D)            (None, 16, 10, 32)        9248      
_________________________________________________________________
max_pooling2d_7 (MaxPooling2 (None, 8, 5, 32)          0         
_________________________________________________________________
conv2d_8 (Conv2D)            (None, 8, 5, 32)          9248      
_________________________________________________________________
max_pooling2d_8 (MaxPooling2 (None, 4, 2, 32)          0         
_________________________________________________________________
flatten_2 (Flatten)          (None, 256)               0         
_________________________________________________________________
dense_4 (Dense)              (None, 256)               65792     
_________________________________________________________________
dense_5 (Dense)              (None, 11)                2827      
=================================================================
Total params: 88,023
Trainable params: 88,017
Non-trainable params: 6
_________________________________________________________________
1132
(1132, 32, 20, 3)
(1132, 11)
(905, 32, 20, 3)
(227, 32, 20, 3)
Epoch 1/100
  1/227 [..............................] - ETA: 1:24 - loss: 0.0000e+00 - accuracy: 1.0000
…
20220103	1132	97	0.02435011975467205	7.422830822179094e-05
20220103	1132	98	0.011900847777724266	0.03208567202091217
20220103	1132	99	0.006953459698706865	0.0032480196096003056
20220103	1132	100	0.0048422664403915405	0.0561903677880764
dig-s2
File Exists
ziffer_resize/NaN_0_ht6_20210628-182853.jpg -1 9
ziffer_resize/NaN_6_dig6_20210720-121946.jpg -1 8
dig-s3
a_output_actual/dig-s3
File Exists
Model: "sequential_3"
_________________________________________________________________
Layer (type)                 Output Shape              Param #   
=================================================================
batch_normalization_3 (Batch (None, 32, 20, 3)         12        
_________________________________________________________________
conv2d_9 (Conv2D)            (None, 32, 20, 32)        896       
_________________________________________________________________
max_pooling2d_9 (MaxPooling2 (None, 16, 10, 32)        0         
_________________________________________________________________
conv2d_10 (Conv2D)           (None, 16, 10, 32)        9248      
_________________________________________________________________
max_pooling2d_10 (MaxPooling (None, 8, 5, 32)          0         
_________________________________________________________________
conv2d_11 (Conv2D)           (None, 8, 5, 32)          9248      
_________________________________________________________________
max_pooling2d_11 (MaxPooling (None, 4, 2, 32)          0         
_________________________________________________________________
flatten_3 (Flatten)          (None, 256)               0         
_________________________________________________________________
dense_6 (Dense)              (None, 128)               32896     
_________________________________________________________________
dense_7 (Dense)              (None, 11)                1419      
=================================================================
Total params: 53,719
Trainable params: 53,713
Non-trainable params: 6
_________________________________________________________________
1132
(1132, 32, 20, 3)
(1132, 11)
(905, 32, 20, 3)
(227, 32, 20, 3)
Epoch 1/100
  1/227 [..............................] - ETA: 1:27 - loss: 5.9605e-08 - accuracy: 1.0000
…
