…
in: ziffer_raw/2_2_dig6_20210629-140009.jpg  -  out: ziffer_resize/2_2_dig6_20210629-140009.jpg
in: ziffer_raw/2_2_digit3_20210320-014308.jpg  -  out: ziffer_resize/2_2_digit3_20210320-014308.jpg
in: ziffer_raw/NaN_ziffer1_2020-04-16_12-20-06.jpg  -  out: ziffer_resize/NaN_ziffer1_2020-04-16_12-20-06.jpg
in: ziffer_raw/0_0_ht1_20210628-223233.jpg  -  out: ziffer_resize/0_0_ht1_20210628-223233.jpg
dig-s0
a_output_actual/dig-s0
File Exists
Model: "sequential"
_________________________________________________________________
Layer (type)                 Output Shape              Param #   
=================================================================
batch_normalization (BatchNo (None, 32, 20, 3)         12        
_________________________________________________________________
conv2d (Conv2D)              (None, 32, 20, 32)        896       
_________________________________________________________________
max_pooling2d (MaxPooling2D) (None, 16, 10, 32)        0         
_________________________________________________________________
conv2d_1 (Conv2D)            (None, 16, 10, 64)        18496     
_________________________________________________________________
max_pooling2d_1 (MaxPooling2 (None, 8, 5, 64)          0         
_________________________________________________________________
conv2d_2 (Conv2D)            (None, 8, 5, 64)          36928     
_________________________________________________________________
max_pooling2d_2 (MaxPooling2 (None, 4, 2, 64)          0         
_________________________________________________________________
flatten (Flatten)            (None, 512)               0         
_________________________________________________________________
dense (Dense)                (None, 512)               262656    
_________________________________________________________________
dense_1 (Dense)              (None, 11)                5643      
=================================================================
Total params: 324,631
Trainable params: 324,625
Non-trainable params: 6
_________________________________________________________________
1229
(1229, 32, 20, 3)
(1229, 11)
(983, 32, 20, 3)
(246, 32, 20, 3)
Epoch 1/100
  1/246 [..............................] - ETA: 2:40 - loss: 0.0000e+00 - accuracy: 1.0000
…
246/246 [==============================] - 3s 11ms/step - loss: 8.9005e-05 - accuracy: 1.0000 - val_loss: 0.2989 - val_accuracy: 0.9919
dig-s0
File Exists
ziffer_resize/0_Ziffer_0_0136.jpg 0 -1
ziffer_resize/3_8_20220103-144320.jpg 3 -1
dig-s1
a_output_actual/dig-s1
File Exists
Model: "sequential_1"
_________________________________________________________________
Layer (type)                 Output Shape              Param #   
=================================================================
batch_normalization_1 (Batch (None, 32, 20, 3)         12        
_________________________________________________________________
conv2d_3 (Conv2D)            (None, 32, 20, 32)        896       
_________________________________________________________________
max_pooling2d_3 (MaxPooling2 (None, 16, 10, 32)        0         
_________________________________________________________________
conv2d_4 (Conv2D)            (None, 16, 10, 64)        18496     
_________________________________________________________________
max_pooling2d_4 (MaxPooling2 (None, 8, 5, 64)          0         
_________________________________________________________________
conv2d_5 (Conv2D)            (None, 8, 5, 64)          36928     
_________________________________________________________________
max_pooling2d_5 (MaxPooling2 (None, 4, 2, 64)          0         
_________________________________________________________________
flatten_1 (Flatten)          (None, 512)               0         
_________________________________________________________________
dense_2 (Dense)              (None, 256)               131328    
_________________________________________________________________
dense_3 (Dense)              (None, 11)                2827      
=================================================================
Total params: 190,487
Trainable params: 190,481
Non-trainable params: 6
_________________________________________________________________
1229
(1229, 32, 20, 3)
(1229, 11)
(983, 32, 20, 3)
(246, 32, 20, 3)
Epoch 1/100
  1/246 [..............................] - ETA: 2:09 - loss: 0.0000e+00 - accuracy: 1.0000
…
File Exists
ziffer_resize/3_0_ht4_20210701-194658.jpg 3 9
ziffer_resize/3_8_20220103-144320.jpg 3 -1
ziffer_resize/4_8_20220104-134407.jpg 4 -1
ziffer_resize/4_8_20220104-183806.jpg 4 -1
ziffer_resize/7_8_20220104-095308.jpg 7 -1
ziffer_resize/9_8_20220103-234409.jpg 9 -1
ziffer_resize/NaN_6_20220104-201706.jpg -1 9
dig-s2
a_output_actual/dig-s2
File Exists
Model: "sequential_2"
_________________________________________________________________
Layer (type)                 Output Shape              Param #   
=================================================================
batch_normalization_2 (Batch (None, 32, 20, 3)         12        
_________________________________________________________________
conv2d_6 (Conv2D)            (None, 32, 20, 32)        896       
_________________________________________________________________
max_pooling2d_6 (MaxPooling2 (None, 16, 10, 32)        0         
_________________________________________________________________
conv2d_7 (Conv2D)            (None, 16, 10, 32)        9248      
_________________________________________________________________
max_pooling2d_7 (MaxPooling2 (None, 8, 5, 32)          0         
_________________________________________________________________
conv2d_8 (Conv2D)            (None, 8, 5, 32)          9248      
_________________________________________________________________
max_pooling2d_8 (MaxPooling2 (None, 4, 2, 32)          0         
_________________________________________________________________
flatten_2 (Flatten)          (None, 256)               0         
_________________________________________________________________
dense_4 (Dense)              (None, 256)               65792     
_________________________________________________________________
dense_5 (Dense)              (None, 11)                2827      
=================================================================
Total params: 88,023
Trainable params: 88,017
Non-trainable params: 6
_________________________________________________________________
1229
(1229, 32, 20, 3)
(1229, 11)
(983, 32, 20, 3)
(246, 32, 20, 3)
Epoch 1/100
  1/246 [..............................] - ETA: 2:05 - loss: 3.7253e-06 - accuracy: 1.0000
…
20220105	1229	100	0.001559378462843597	0.1139230877161026
dig-s2
File Exists
ziffer_resize/0_7_20220104-070208.jpg 0 8
ziffer_resize/0_8_20220103-191941.jpg 0 -1
ziffer_resize/2_7_20220103-014659.jpg 2 -1
ziffer_resize/3_8_20220103-144320.jpg 3 -1
ziffer_resize/5_7_20220103-153142.jpg 5 6
ziffer_resize/7_8_20220104-095308.jpg 7 -1
dig-s3
a_output_actual/dig-s3
File Exists
Model: "sequential_3"
_________________________________________________________________
Layer (type)                 Output Shape              Param #   
=================================================================
batch_normalization_3 (Batch (None, 32, 20, 3)         12        
_________________________________________________________________
conv2d_9 (Conv2D)            (None, 32, 20, 32)        896       
_________________________________________________________________
max_pooling2d_9 (MaxPooling2 (None, 16, 10, 32)        0         
_________________________________________________________________
conv2d_10 (Conv2D)           (None, 16, 10, 32)        9248      
_________________________________________________________________
max_pooling2d_10 (MaxPooling (None, 8, 5, 32)          0         
_________________________________________________________________
conv2d_11 (Conv2D)           (None, 8, 5, 32)          9248      
_________________________________________________________________
max_pooling2d_11 (MaxPooling (None, 4, 2, 32)          0         
_________________________________________________________________
flatten_3 (Flatten)          (None, 256)               0         
_________________________________________________________________
dense_6 (Dense)              (None, 128)               32896     
_________________________________________________________________
dense_7 (Dense)              (None, 11)                1419      
=================================================================
Total params: 53,719
Trainable params: 53,713
Non-trainable params: 6
_________________________________________________________________
1229
(1229, 32, 20, 3)
(1229, 11)
(983, 32, 20, 3)
(246, 32, 20, 3)
Epoch 1/100
  1/246 [..............................] - ETA: 2:04 - loss: 0.0000e+00 - accuracy: 1.0000
…
