…
in: ziffer_raw/NaN_ziffer5_2020-05-11_11-10-06.jpg  -  out: ziffer_resize/NaN_ziffer5_2020-05-11_11-10-06.jpg
in: ziffer_raw/NaN_ziffer5_2020-04-18_18-40-06.jpg  -  out: ziffer_resize/NaN_ziffer5_2020-04-18_18-40-06.jpg
in: ziffer_raw/2_2_dig6_20210629-140009.jpg  -  out: ziffer_resize/2_2_dig6_20210629-140009.jpg
dig-s0
a_output_actual/dig-s0
File Exists
Model: "sequential"
_________________________________________________________________
Layer (type)                 Output Shape              Param #   
=================================================================
batch_normalization (BatchNo (None, 32, 20, 3)         12        
_________________________________________________________________
conv2d (Conv2D)              (None, 32, 20, 32)        896       
_________________________________________________________________
max_pooling2d (MaxPooling2D) (None, 16, 10, 32)        0         
_________________________________________________________________
conv2d_1 (Conv2D)            (None, 16, 10, 64)        18496     
_________________________________________________________________
max_pooling2d_1 (MaxPooling2 (None, 8, 5, 64)          0         
_________________________________________________________________
conv2d_2 (Conv2D)            (None, 8, 5, 64)          36928     
_________________________________________________________________
max_pooling2d_2 (MaxPooling2 (None, 4, 2, 64)          0         
_________________________________________________________________
flatten (Flatten)            (None, 512)               0         
_________________________________________________________________
dense (Dense)                (None, 512)               262656    
_________________________________________________________________
dense_1 (Dense)              (None, 11)                5643      
=================================================================
Total params: 324,631
Trainable params: 324,625
Non-trainable params: 6
_________________________________________________________________
1133
(1133, 32, 20, 3)
(1133, 11)
(906, 32, 20, 3)
(227, 32, 20, 3)
Epoch 1/100
  1/227 [..............................] - ETA: 2:03 - loss: 0.0000e+00 - accuracy: 1.0000
…
227/227 [==============================] - 2s 7ms/step - loss: 9.4768e-05 - accuracy: 1.0000 - val_loss: 9.1376e-06 - val_accuracy: 1.0000
dig-s0
File Exists
ziffer_resize/5_8_20220103-012513.jpg 5 -1
ziffer_resize/NaN_ziffer4_2020-04-25_09-50-06.jpg -1 2
dig-s1
a_output_actual/dig-s1
File Exists
Model: "sequential_1"
_________________________________________________________________
Layer (type)                 Output Shape              Param #   
=================================================================
batch_normalization_1 (Batch (None, 32, 20, 3)         12        
_________________________________________________________________
conv2d_3 (Conv2D)            (None, 32, 20, 32)        896       
_________________________________________________________________
max_pooling2d_3 (MaxPooling2 (None, 16, 10, 32)        0         
_________________________________________________________________
conv2d_4 (Conv2D)            (None, 16, 10, 64)        18496     
_________________________________________________________________
max_pooling2d_4 (MaxPooling2 (None, 8, 5, 64)          0         
_________________________________________________________________
conv2d_5 (Conv2D)            (None, 8, 5, 64)          36928     
_________________________________________________________________
max_pooling2d_5 (MaxPooling2 (None, 4, 2, 64)          0         
_________________________________________________________________
flatten_1 (Flatten)          (None, 512)               0         
_________________________________________________________________
dense_2 (Dense)              (None, 256)               131328    
_________________________________________________________________
dense_3 (Dense)              (None, 11)                2827      
=================================================================
Total params: 190,487
Trainable params: 190,481
Non-trainable params: 6
_________________________________________________________________
1133
(1133, 32, 20, 3)
(1133, 11)
(906, 32, 20, 3)
(227, 32, 20, 3)
Epoch 1/100
  1/227 [..............................] - ETA: 1:25 - loss: 0.0000e+00 - accuracy: 1.0000
…
20220103	1133	99	0.004148178733885288	0.05664214491844177
20220103	1133	100	0.01790221780538559	0.03774639964103699
dig-s1
File Exists
ziffer_resize/2_7_20220103-014313.jpg 2 1
ziffer_resize/5_5_ROI4_20210418-173416.jpg 5 -1
ziffer_resize/8 -8_7_20211231-080400.jpg 8 0
ziffer_resize/8- 8_6_20211231-082402.jpg 8 0
ziffer_resize/8.0_lcd.jpg 8 6
dig-s2
a_output_actual/dig-s2
File Exists
Model: "sequential_2"
_________________________________________________________________
Layer (type)                 Output Shape              Param #   
=================================================================
batch_normalization_2 (Batch (None, 32, 20, 3)         12        
_________________________________________________________________
conv2d_6 (Conv2D)            (None, 32, 20, 32)        896       
_________________________________________________________________
max_pooling2d_6 (MaxPooling2 (None, 16, 10, 32)        0         
_________________________________________________________________
conv2d_7 (Conv2D)            (None, 16, 10, 32)        9248      
_________________________________________________________________
max_pooling2d_7 (MaxPooling2 (None, 8, 5, 32)          0         
_________________________________________________________________
conv2d_8 (Conv2D)            (None, 8, 5, 32)          9248      
_________________________________________________________________
max_pooling2d_8 (MaxPooling2 (None, 4, 2, 32)          0         
_________________________________________________________________
flatten_2 (Flatten)          (None, 256)               0         
_________________________________________________________________
dense_4 (Dense)              (None, 256)               65792     
_________________________________________________________________
dense_5 (Dense)              (None, 11)                2827      
=================================================================
Total params: 88,023
Trainable params: 88,017
Non-trainable params: 6
_________________________________________________________________
1133
(1133, 32, 20, 3)
(1133, 11)
(906, 32, 20, 3)
(227, 32, 20, 3)
Epoch 1/100
  1/227 [..............................] - ETA: 1:19 - loss: 1.3340 - accuracy: 0.7500
…
20220103	1133	99	0.0022569980937987566	0.384362131357193
20220103	1133	100	0.0008066204027272761	0.22891220450401306
dig-s2
File Exists
ziffer_resize/1_7_20220103-011313.jpg 1 2
ziffer_resize/2_7_20220103-014659.jpg 2 -1
ziffer_resize/NaN_0_ht6_20210628-182853.jpg -1 9
ziffer_resize/NaN_ziffer5_2020-04-16_11-40-06.jpg -1 5
dig-s3
a_output_actual/dig-s3
File Exists
Model: "sequential_3"
_________________________________________________________________
Layer (type)                 Output Shape              Param #   
=================================================================
batch_normalization_3 (Batch (None, 32, 20, 3)         12        
_________________________________________________________________
conv2d_9 (Conv2D)            (None, 32, 20, 32)        896       
_________________________________________________________________
max_pooling2d_9 (MaxPooling2 (None, 16, 10, 32)        0         
_________________________________________________________________
conv2d_10 (Conv2D)           (None, 16, 10, 32)        9248      
_________________________________________________________________
max_pooling2d_10 (MaxPooling (None, 8, 5, 32)          0         
_________________________________________________________________
conv2d_11 (Conv2D)           (None, 8, 5, 32)          9248      
_________________________________________________________________
max_pooling2d_11 (MaxPooling (None, 4, 2, 32)          0         
_________________________________________________________________
flatten_3 (Flatten)          (None, 256)               0         
_________________________________________________________________
dense_6 (Dense)              (None, 128)               32896     
_________________________________________________________________
dense_7 (Dense)              (None, 11)                1419      
=================================================================
Total params: 53,719
Trainable params: 53,713
Non-trainable params: 6
_________________________________________________________________
1133
(1133, 32, 20, 3)
(1133, 11)
(906, 32, 20, 3)
(227, 32, 20, 3)
Epoch 1/100
  1/227 [..............................] - ETA: 1:24 - loss: 0.0000e+00 - accuracy: 1.0000
…
